tfLite/mnist_savedmodel_quantized.tflite (tflite, 84280 bytes, 4 tensors)

StatefulPartitionedCall/sequential/dense/MatMul/ReadVariableOp/transpose i1 [100, 784] scale=0.002294565 zero_point=0
0	0x01	0.002294565
1	0xe7	-0.05736413
2	0x0c	0.027534781
3	0x1d	0.06654239
4	0xe9	-0.052774996
5	0xf0	-0.03671304
6	0x03	0.0068836953
7	0x0a	0.02294565
8	0xf1	-0.034418475
9	0xee	-0.04130217
10	0xe9	-0.052774996
11	0x11	0.039007608
12	0x12	0.04130217
13	0x12	0.04130217
14	0x13	0.043596737
15	0x0b	0.025240216
16	0x0f	0.034418475
17	0xf1	-0.034418475
18	0x01	0.002294565
19	0x05	0.011472825
20	0x1b	0.061953258
21	0x1d	0.06654239
22	0x11	0.039007608
23	0x13	0.043596737
24	0xec	-0.0458913
25	0xee	-0.04130217
26	0xe2	-0.06883695
27	0xe2	-0.06883695
28	0x1f	0.07113152
29	0x01	0.002294565
30	0x0e	0.032123912
31	0xfc	-0.00917826
32	0x08	0.01835652
33	0x1b	0.061953258
34	0x1a	0.05965869
35	0x02	0.00458913
36	0x27	0.08948804
37	0x29	0.09407717
38	0x2b	0.098666295
39	0x1c	0.064247824
40	0x41	0.14914674
41	0x18	0.055069562
42	0xf5	-0.025240216
43	0x18	0.055069562
44	0xe1	-0.07113152
45	0x21	0.075720645
46	0x2e	0.10554999
47	0x25	0.08489891
48	0x1c	0.064247824
49	0x0a	0.02294565
50	0x19	0.05736413
51	0xee	-0.04130217
52	0x0d	0.029829346
53	0x0e	0.032123912
54	0x0d	0.029829346
55	0xfb	-0.011472825
56	0x17	0.052774996
57	0x09	0.020651085
58	0xf2	-0.032123912
59	0xf9	-0.016061956
60	0x04	0.00917826
61	0x14	0.0458913
62	0x15	0.048185866
63	0xf6	-0.02294565
64	0x1d	0.06654239
65	0x05	0.011472825
66	0x28	0.0917826
67	0x01	0.002294565
68	0xee	-0.04130217
69	0xf4	-0.027534781
70	0xf6	-0.02294565
71	0x01	0.002294565
72	0xd5	-0.098666295
73	0xfb	-0.011472825
74	0x05	0.011472825
75	0x1a	0.05965869
76	0xec	-0.0458913
77	0x2b	0.098666295
78	0x1a	0.05965869
79	0x21	0.075720645
80	0xf1	-0.034418475
81	0x1d	0.06654239
82	0x21	0.075720645
83	0xf2	-0.032123912
84	0xe4	-0.064247824
85	0xde	-0.078015216
86	0x11	0.039007608
87	0xeb	-0.048185866
88	0x06	0.0137673905
89	0x1f	0.07113152
90	0x22	0.078015216
91	0x06	0.0137673905
92	0x1a	0.05965869
93	0xfa	-0.0137673905
94	0x18	0.055069562
95	0xf3	-0.029829346
96	0x13	0.043596737
97	0xf3	-0.029829346
98	0x14	0.0458913
99	0x2a	0.09637173
100	0x31	0.11243369
101	0xf4	-0.027534781
102	0x15	0.048185866
103	0x17	0.052774996
104	0x10	0.03671304
105	0x07	0.016061956
106	0x12	0.04130217
107	0xf8	-0.01835652
108	0xeb	-0.048185866
109	0xe5	-0.061953258
110	0xe6	-0.05965869
111	0xf5	-0.025240216
112	0xdd	-0.08030978
113	0x12	0.04130217
114	0xe5	-0.061953258
115	0x04	0.00917826
116	0x2b	0.098666295
117	0x16	0.050480433
118	0x18	0.055069562
119	0x1f	0.07113152
120	0xfe	-0.00458913
121	0x17	0.052774996
122	0x25	0.08489891
123	0xfc	-0.00917826
124	0xf1	-0.034418475
125	0x09	0.020651085
126	0x1b	0.061953258
127	0x16	0.050480433
128	0x03	0.0068836953
129	0xf0	-0.03671304
130	0x26	0.087193474
131	0x11	0.039007608
132	0x1c	0.064247824
133	0x08	0.01835652
134	0x09	0.020651085
135	0x08	0.01835652
136	0x01	0.002294565
137	0xe5	-0.061953258
138	0x04	0.00917826
139	0xe5	-0.061953258
140	0xf0	-0.03671304
141	0xe3	-0.06654239
142	0xe2	-0.06883695
143	0xe7	-0.05736413
144	0x12	0.04130217
145	0x38	0.12849565
146	0x1b	0.061953258
147	0xe5	-0.061953258
148	0x21	0.075720645
149	0xf8	-0.01835652
150	0xef	-0.039007608
151	0x08	0.01835652
152	0xf7	-0.020651085
153	0xef	-0.039007608
154	0xd2	-0.10554999
155	0x0b	0.025240216
156	0x0b	0.025240216
157	0xe3	-0.06654239
158	0x0f	0.034418475
159	0xe0	-0.07342608
160	0xfb	-0.011472825
161	0xd2	-0.10554999
162	0xf7	-0.020651085
163	0xf0	-0.03671304
164	0x01	0.002294565
165	0xc6	-0.13308477
166	0xc1	-0.1445576
167	0xfc	-0.00917826
168	0xfb	-0.011472825
169	0x18	0.055069562
170	0x32	0.11472826
171	0x15	0.048185866
172	0xf3	-0.029829346
173	0xf6	-0.02294565
174	0x10	0.03671304
175	0xed	-0.043596737
176	0xf1	-0.034418475
177	0xda	-0.087193474
178	0xfd	-0.0068836953
179	0x09	0.020651085
180	0xca	-0.123906516
181	0xf8	-0.01835652
182	0x11	0.039007608
183	0xe3	-0.06654239
184	0x0b	0.025240216
185	0x11	0.039007608
186	0xdf	-0.075720645
187	0x16	0.050480433
188	0xd3	-0.10325543
189	0xea	-0.050480433
190	0x10	0.03671304
191	0xf1	-0.034418475
192	0xff	-0.002294565
193	0xbe	-0.15144129
194	0xd3	-0.10325543
195	0xf8	-0.01835652
196	0x1c	0.064247824
197	0x15	0.048185866
198	0x2c	0.100960866
199	0x0c	0.027534781
200	0x1e	0.06883695
201	0x20	0.07342608
202	0xf1	-0.034418475
203	0xdc	-0.08260434
204	0x0b	0.025240216
205	0xe0	-0.07342608
206	0xef	-0.039007608
207	0x08	0.01835652
208	0xd9	-0.08948804
209	0xd5	-0.098666295
210	0x05	0.011472825
211	0x0c	0.027534781
212	0xf1	-0.034418475
213	0x1d	0.06654239
214	0x09	0.020651085
215	0xea	-0.050480433
216	0xe3	-0.06654239
217	0xec	-0.0458913
218	0x1a	0.05965869
219	0xdd	-0.08030978
220	0xdf	-0.075720645
221	0xc4	-0.1376739
222	0xf0	-0.03671304
223	0x00	0.0
224	0xfe	-0.00458913
225	0x23	0.08030978
226	0xf7	-0.020651085
227	0x29	0.09407717
228	0x0e	0.032123912
229	0x0b	0.025240216
230	0x17	0.052774996
231	0xee	-0.04130217
232	0x1a	0.05965869
233	0x11	0.039007608
234	0x00	0.0
235	0x0c	0.027534781
236	0xf0	-0.03671304
237	0x08	0.01835652
238	0x25	0.08489891
239	0xfb	-0.011472825
240	0x27	0.08948804
241	0x20	0.07342608
242	0x0b	0.025240216
243	0xfa	-0.0137673905
244	0xdc	-0.08260434
245	0xf9	-0.016061956
246	0x1d	0.06654239
247	0xf4	-0.027534781
248	0xd8	-0.0917826
249	0xc9	-0.12620108
250	0xe9	-0.052774996
251	0xe6	-0.05965869
252	0xf1	-0.034418475
253	0x02	0.00458913
254	0x1d	0.06654239
255	0x0d	0.029829346

StatefulPartitionedCall/sequential/dense/MatMul_bias f4 [100]
0	0x3cc3f660	0.023921192
1	0x3dca5ca1	0.09880949
2	0xbd51b7f8	-0.051200837
3	0x3cdd8ba2	0.027044121
4	0x3daf1779	0.08549399
5	0x3d482562	0.048863776
6	0x3d8895ef	0.066692226
7	0x3dd0e180	0.10199261
8	0x3cf7e5c2	0.030260924
9	0xbd95dcce	-0.07317506
10	0x3d989b6a	0.07451518
11	0xbd3b0aff	-0.045664784
12	0x3d375bf4	0.044765428
13	0x3d85e0d2	0.06537022
14	0x3ce70024	0.02819831
15	0xbd0e1bd7	-0.03469452
16	0x3d30562a	0.043050922
17	0x3ce400e5	0.027832458
18	0x3d9fcc6c	0.07802662
19	0xbc204696	-0.009782454
20	0x3c718e39	0.014743381
21	0x3d4dd8c3	0.05025555
22	0x3bdd0275	0.0067446777
23	0x3d8132a1	0.06308485
24	0x3d9d5302	0.07681848
25	0x3d529e49	0.051420484
26	0x3db7806d	0.08960042
27	0x3d0c6730	0.034278095
28	0x3c87f774	0.016597487
29	0xbc94bb1d	-0.018155629
30	0x3d7d9987	0.061913993
31	0x3c0695ff	0.008214473
32	0x3ca051d9	0.019570278
33	0x3db13986	0.0865355
34	0x3db6c1c4	0.089236766
35	0x3cac5f1d	0.021041447
36	0xbd0a718a	-0.033799686
37	0x3d5515f6	0.052022897
38	0x3c82374a	0.015895505
39	0x3cc3dcfc	0.023909084
40	0xbd3045a0	-0.04303515
41	0xbc1e4e83	-0.009662273
42	0xbcfa8717	-0.030581994
43	0xbcf8cee2	-0.030372087
44	0x3d5bad35	0.05363198
45	0x3daec69b	0.08533975
46	0x3ca136f1	0.019679518
47	0x3d239797	0.03993949
48	0x3cd1fc97	0.02563314
49	0xbd00d2b2	-0.031450935
50	0x3db5ea00	0.088825226
51	0xbd4c581c	-0.049888715
52	0x3e068b5d	0.131391
53	0x3d0d6cb9	0.034527514
54	0x3d773c1b	0.060360055
55	0xbd44322f	-0.04789942
56	0x3db56003	0.088562034
57	0x3c27261a	0.010201955
58	0x3d91b0d0	0.071138024
59	0x3da5f305	0.08102993
60	0x3c8b42da	0.01699965
61	0x3d709847	0.058738973
62	0x3ccbd370	0.024881095
63	0x3d30cf36	0.04316636
64	0x3d26fe0a	0.040769614
65	0x3bf8c72b	0.007592102
66	0xbc0db8c2	-0.008650007
67	0xbd2c8a5a	-0.04212413
68	0x3d549cc1	0.051907305
69	0xba5ba1a6	-0.00083782745
70	0x3d7cd208	0.06172374
71	0x3d15b8c2	0.036553152
72	0x3c7ba9ca	0.015360305
73	0xbca408b1	-0.020023676
74	0x3d306791	0.04306752
75	0x3c40dea0	0.011771828
76	0xbc93f210	-0.01805976
77	0xbcbabba4	-0.022794552
78	0xbb0c60ad	-0.0021419928
79	0x3ce30f8c	0.027717374
80	0x3b3b083b	0.0028538841
81	0xbd732d68	-0.059369475
82	0x3d3c5f3e	0.045989268
83	0xbd85d464	-0.06534651
84	0xbb57d7c1	-0.0032934996
85	0x3d1a9073	0.037735414
86	0x3d2d0d52	0.04224903
87	0xbd909876	-0.070603296
88	0xbc20cc74	-0.00981437
89	0xbd461936	-0.048363887
90	0xbced542d	-0.028970802
91	0xbd03d1ef	-0.03218263
92	0x3d374700	0.044745445
93	0xbd197535	-0.037465293
94	0xbcc765ec	-0.024340592
95	0xbce32810	-0.027729064
96	0x3d101b5f	0.035182353
97	0x3d789771	0.0606913
98	0xbbcb356b	-0.0062014363
99	0x3da9af46	0.08285384

StatefulPartitionedCall/sequential/dense_1/MatMul/ReadVariableOp/transpose f4 [10, 100]
0	0x3e02faa2	0.12790921
1	0xbe77ee79	-0.24212064
2	0x3ca0f617	0.019648595
3	0x3e46d204	0.19416052
4	0xbe08b31f	-0.1334958
5	0xbe3b42ae	-0.18287155
6	0x3e67e448	0.22645676
7	0xbe8eb03a	-0.27868825
8	0xbe4b920e	-0.19879934
9	0x3dd59a58	0.10429829
10	0xbbdfbf1e	-0.006828203
11	0x3a0fa5d2	0.0005479726
12	0xbe3cc925	-0.18436106
13	0xbe8de6ef	-0.2771525
14	0x3c9e6cb6	0.019338947
15	0x3e5b0304	0.21387869
16	0x3e479c4f	0.19493221
17	0xbe3f76cf	-0.18697666
18	0xbdcbff24	-0.099607736
19	0x3dcf5ab6	0.101247236
20	0x3d35857d	0.044316757
21	0xbe4e716a	-0.20160452
22	0xba8d44e3	-0.0010777976
23	0xbea13d6b	-0.3149217
24	0xbdf1979f	-0.117964976
25	0xbea3de0d	-0.3200535
26	0x3d185534	0.03719063
27	0xbe62dac5	-0.22153766
28	0xbdd6c26c	-0.10486302
29	0xbeba700b	-0.36413607
30	0x3de50235	0.111820616
31	0xbd2e6baa	-0.042583145
32	0xbd2ce669	-0.042211924
33	0x3e6d1bdc	0.23155159
34	0xbe5ad069	-0.21368565
35	0xbda6467b	-0.08118912
36	0x3d687360	0.056750655
37	0xbea658f6	-0.32489747
38	0x3db432b4	0.08798733
39	0xbe5cd22a	-0.21564546
40	0xbe8d6142	-0.27613264
41	0xbe9b9620	-0.30387974
42	0xbe012486	-0.12611589
43	0xbd3da052	-0.04629547
44	0x3dee76e5	0.11643771
45	0xbe92197e	-0.28535074
46	0xbea3b218	-0.31971812
47	0xbb977aca	-0.004622792
48	0x3d6d58ce	0.05794602
49	0xbe4a8535	-0.19777377
50	0xbd80a56a	-0.0628155
51	0x3e9d4e96	0.3072402
52	0x3db6a733	0.089186095
53	0xbe0555b1	-0.1302097
54	0xbe15ff20	-0.14648104
55	0x3e2a20d4	0.16614085
56	0x3e749c6b	0.23887794
57	0xbdb89d3c	-0.09014365
58	0xbea63227	-0.32460138
59	0xbd195e44	-0.037443414
60	0x3cc39301	0.023873808
61	0x3d74b5d0	0.059743702
62	0xbe8c14b9	-0.2735956
63	0xbdbc59cf	-0.09196817
64	0x3e969da4	0.29417145
65	0xbe192bc3	-0.149581
66	0x3e865391	0.2623563
67	0xbd5235ba	-0.05132077
68	0x3cdf6881	0.027271511
69	0x3e20f6da	0.15719166
70	0xbe77546b	-0.24153297
71	0x3e34928b	0.17634027
72	0x3e9940db	0.29932293
73	0x3e196a07	0.14981852
74	0x3b5bae87	0.0033520774
75	0x3e7ae476	0.24501213
76	0xbe85f672	-0.26164585
77	0xbe8e14f6	-0.27750367
78	0x3e71ccb2	0.23613241
79	0xbe696618	-0.22792852
80	0xbd7ecb14	-0.06220539
81	0x3e352889	0.17691244
82	0xbdfa44ef	-0.12220179
83	0x3e873781	0.26409534
84	0x3e4e055a	0.20119229
85	0x3c6bf62b	0.014401953
86	0x3da6bac1	0.08141089
87	0x3e4823f8	0.19544971
88	0xbe86fb93	-0.2636381
89	0x3e82c8b7	0.25543758
90	0xbe34c966	-0.17654952
91	0x3db976f1	0.090558894
92	0xbbacc8db	-0.0052729673
93	0xbe986c4c	-0.29770124
94	0xbe50900c	-0.2036745
95	0x3e0e92a1	0.13923122
96	0x3c0cf912	0.008604305
97	0x3e07ce8a	0.13262382
98	0x3dc42b93	0.095786236
99	0xbdb48580	-0.088145256
100	0xbe0b043e	-0.13575837
101	0x3dbb89fa	0.09157176
102	0xbe93ba17	-0.28852913
103	0xbea473e4	-0.32119668
104	0xbe8f330f	-0.27968642
105	0x3e52e64a	0.20595661
106	0xbd7b0b54	-0.0612901
107	0x3de6395c	0.11241409
108	0x3e593a75	0.21213706
109	0xbe476e72	-0.19475725
110	0x3de9a8ff	0.114091866
111	0xbcf15f10	-0.029464275
112	0x3eaaa4f3	0.3332897
113	0x3e984cc1	0.2974606
114	0x3eb45e33	0.35228118
115	0xbe6f707b	-0.23382752
116	0xbe67f351	-0.22651412
117	0x3e11bb46	0.14231595
118	0xbe24f172	-0.16107729
119	0xbce6ee0f	-0.028189687
120	0x3d71043d	0.058841933
121	0xbe3621a6	-0.17786273
122	0x3e8b882c	0.27252328
123	0xbeb1787b	-0.34662232
124	0x3ea70126	0.32618064
125	0xbd5b8e95	-0.053602774
126	0x3e3d6b96	0.18498072
127	0x3dfe7e4b	0.12426432
128	0xbdd61757	-0.104536705
129	0xbe07939f	-0.13239907
130	0x3dd0f549	0.102030344
131	0x3e6e6ede	0.2328448
132	0x3d058ea9	0.032606754
133	0x3cd9ce51	0.026587637
134	0x3e2a72b8	0.16645324
135	0xbd0f74a2	-0.03502334
136	0xbdece7a1	-0.11567617
137	0xbc34b83b	-0.011030252
138	0x3e3f612d	0.18689413
139	0xbc8a6434	-0.016893484
140	0xbe8a17ab	-0.26971182
141	0x3d80c382	0.0628729
142	0xbd7ec8b6	-0.06220313
143	0x3c5c0744	0.013429467
144	0xbe435f5f	-0.1907935
145	0xbe4cbf29	-0.19994797
146	0x3e80a866	0.25128478
147	0xbd9a48db	-0.07533427
148	0x3e62bada	0.2214159
149	0xbea71b17	-0.32637855
150	0xbe77ed58	-0.24211633
151	0x3d9ad4cd	0.0756012
152	0x3ea8c49f	0.3296251
153	0x3e8e2eb7	0.27770016
154	0x3ea23164	0.31678307
155	0xbe9b9ff6	-0.30395478
156	0x3eaa7e2a	0.3329938
157	0xbea54a16	-0.32283086
158	0x3e960be0	0.29305935
159	0x3e819c6f	0.25314662
160	0xbcd8384e	-0.026394036
161	0xbe52999e	-0.20566413
162	0x3e293359	0.16523494
163	0x3de61007	0.11233526
164	0x3d692fdb	0.056930404
165	0xbe28d5ba	-0.1648778
166	0x3d8b38eb	0.067979656
167	0xbe979388	-0.29604745
168	0x3d0a511c	0.03376876
169	0xbdf93f4c	-0.12170276
170	0x3d9446ba	0.072400525
171	0x3dd3918f	0.103304975
172	0xbd9c5387	-0.07633119
173	0xbe9edbc3	-0.3102704
174	0xbe4a626b	-0.19764106
175	0x3d15d157	0.036576595
176	0xbdab4b3b	-0.083639584
177	0x3e3b2db1	0.18279149
178	0xbe7c2970	-0.24625182
179	0x3dfaef78	0.12252706
180	0xbe907b0f	-0.28218886
181	0x3cd4877b	0.025943508
182	0x3e631f60	0.22179937
183	0xbe5a1616	-0.21297488
184	0x3d33172c	0.04372327
185	0xbe32686a	-0.17422643
186	0xbe443850	-0.19162107
187	0xbe730611	-0.23732783
188	0x3e011c25	0.12608393
189	0xbe998648	-0.2998526
190	0xbe60a628	-0.21938384
191	0x3e7aba2c	0.24485081
192	0xbe019846	-0.12655744
193	0xbe0bff6f	-0.13671659
194	0xbe4b313b	-0.19842999
195	0xbe648dca	-0.22319713
196	0x3cbca9cf	0.02303019
197	0xbd616afc	-0.05503367
198	0xbe40ec36	-0.18840107
199	0xbeb7e8ae	-0.35919708
200	0xbe5f9b95	-0.21836694
201	0xbe75d07e	-0.24005315
202	0x3e1316ef	0.14364217
203	0xbddfadea	-0.10921843
204	0xbe7c486a	-0.24636999
205	0xbef6365a	-0.48088342
206	0xbe1c2851	-0.15249754
207	0x3cf613f4	0.030038811
208	0xbe50bf45	-0.20385464
209	0x3e4a09b1	0.1973026
210	0x3e04cdaa	0.1296908
211	0xbe130be8	-0.1436001
212	0x3dbef5af	0.09324204
213	0x3e6d1efc	0.23156351
214	0xbb771020	-0.003769882
215	0xbe659a8d	-0.22422238
216	0xbd9ae355	-0.075628914
217	0x3e86e011	0.26342824
218	0xbdef5576	-0.11686222
219	0xbe6d2935	-0.2316025
220	0x3e5d6558	0.21620691
221	0xbbab9de5	-0.0052373284
222	0xbb95f31c	-0.0045761
223	0x3eae322a	0.34022647
224	0xbc97b36c	-0.018518172
225	0x3d125650	0.035726845
226	0x3de2cc2d	0.110741
227	0xbe8e8cb1	-0.27841714
228	0xbe724e1b	-0.23662607
229	0xbe35952c	-0.17732686
230	0x3dd83c01	0.1055832
231	0xbe9c34ef	-0.30509135
232	0xbcc14494	-0.02359227
233	0xbe638b21	-0.22221042
234	0xbdd728e0	-0.10505843
235	0xbe83acb9	-0.25717714
236	0x3c10b483	0.0088321
237	0x3e17eb68	0.14835894
238	0x3e8d26e3	0.2756873
239	0xbe0e2972	-0.13882998
240	0xbb9bab80	-0.004750669
241	0x3e818fd9	0.2530506
242	0x3b8c881e	0.0042886874
243	0x3c5ab7ee	0.013349516
244	0xbe88ff9b	-0.26757511
245	0x3d421a28	0.047388226
246	0x3d834bc0	0.064109325
247	0xbe7d4b96	-0.24735865
248	0x3d7c940b	0.061664622
249	0xbdf21201	-0.1181984
250	0xbe6182a8	-0.22022498
251	0x3e878dba	0.26475316
252	0x3d878df4	0.06618872
253	0x3e73a8a0	0.23794794
254	0xbdab0448	-0.08350426
255	0xbda69ebb	-0.08135744

StatefulPartitionedCall/sequential/dense_1/MatMul_bias f4 [10]
0	0xbd419667	-0.047262575
1	0x3cad13ca	0.0211276
2	0x3c98d382	0.018655542
3	0xbc909cfc	-0.017652981
4	0xbd313b28	-0.043269306
5	0x3d9887c7	0.074477725
6	0x3b0a3684	0.0021089623
7	0x3d135e8c	0.03597884
8	0xbda6c432	-0.0814289
9	0x3cd42fa4	0.025901623
