tfLite/mnist_savedmodel.tflite (tflite, 319420 bytes, 4 tensors)

StatefulPartitionedCall/sequential/dense/MatMul/ReadVariableOp/transpose f4 [100, 784]
00000000: 2056 413b aefb 6cbd fc5e df3c 5c57 893d
00000010: 9c4a 5bbd 7f85 14bd e0ce e03b a0c2 c33c
00000020: 7ad6 0dbd a371 28bd f08c 5abd 0eae 1b3d
00000030: 7a3d 263d cb3e 2d3d 5690 353d 88c8 cb3c
00000040: 22db 0d3d f997 0fbd 0089 4a3b d887 4d3c
00000050: f0d8 7d3d d001 893d 768c 203d b029 333d
00000060: aa70 3abd b39e 26bd 4818 8dbd 8e60 8ebd
00000070: 28f4 903d a0b9 163b d4df 033d 304f 21bc
00000080: e69a 903c 8db7 7b3d 711e 753d 385a 653b
00000090: bab3 b63d e6bd be3d 0f0d c83d 7873 813d
000000a0: e9ef 183e 6fc1 5e3d 3ec4 d2bc 6ec1 603d
000000b0: 222e 92bd 328c 993d c1b9 d73d a930 b03d
000000c0: beb1 823d 0a66 c13c 87f0 693d 742c 2cbd
000000d0: a89a f13c de75 003d 047d fa3c 6097 2fbc
000000e0: 7c4b 5c3d 0cc3 ac3c a293 03bd 4713 89bc
000000f0: 5229 273c d75e 3e3d c275 453d 17ab b5bc
00000100: 98fd 873d 1b39 2c3c 94fe ba3d f16f b33a
00000110: aa06 28bd 1132 ddbc 1136 b6bc 8005 573b
00000120: 74a4 c9bd 8926 3dbc 0e4c 4d3c d65d 763d
00000130: c23c 3bbd b96a cc3d 4487 763d 5d7b 9c3d
00000140: 7096 0fbd 27a7 893d 1e4a 993d 8a9c 01bd
00000150: 6e71 81bd b096 a1bd 405f 203d 3f37 48bd
00000160: fbc8 603c bf4c 903d f0b9 a03d 3c41 703c
00000170: 0b03 743d 03a3 5bbc 4b79 603d 18fa f6bc
00000180: d16a 313d 6c65 f6bc 718d 3f3d 4a80 c53d
00000190: dd1e e43d daa2 dabc 6205 413d d22e 563d
000001a0: f6e4 113d 77a8 863c 97bc 2d3d a7b0 9bbc
000001b0: b150 44bd f360 80bd 6ed8 71bd 3a28 d7bc
000001c0: 779b a5bd 17c5 2a3d f914 79bd fc26 223c
000001d0: ff20 cc3d aa5a 4e3d 6054 5f3d 5443 923d
000001e0: f44b babb f7cc 5c3d 4507 ac3d b2ce 1abc
000001f0: 1944 0fbd ec64 a73c 8587 7d3d 5983 4e3d
00000200: a347 d63b e6fe 12bd 975d b23d c171 1e3d
00000210: 364f 833d 9bed 9b3c 9ebd a73c 338e 9e3c
00000220: 67cb 203b 1e00 80bd 0ea0 273c 76e1 7dbd
00000230: 318b 15bd 9fe9 87bd eeff 8dbd eaaf 69bd
00000240: 2739 2a3d 5d32 033e d62e 793d e686 7dbd
00000250: f410 9d3d 1a18 9dbc 5a82 23bd 8cc0 9d3c
00000260: 7bce b1bc b857 23bd 44f8 d6bd d6c7 d73c
00000270: 967e d43c 0f67 8abd 6333 103d b73c 98bd
00000280: 8764 42bc 48b0 d8bd b929 a6bc c99d 16bd
00000290: cd76 383b 9931 09be b856 14be a3b6 16bc
000002a0: d858 2fbc 1bbf 613d d02d ea3d 003e 443d
000002b0: 9b33 fdbc 29a2 babc e085 143d 3bf9 31bd
000002c0: 0149 0cbd 292c b1bd ac35 c7bb f9f7 9f3c
000002d0: 60b9 fcbd 541e 95bc 923f 233d ff37 88bd
000002e0: e85b c93c cc74 1b3d e42c 9bbd d6b9 523d
000002f0: a190 d5bd e1b2 4abd 2163 143d ea59 08bd
00000300: 99cf 5cbb 1c61 1abe 6acd d1bd 7c68 9dbc
00000310: c1d5 853d 0683 413d a995 cc3d e2fa dd3c
00000320: bf61 8d3d 0b2a 963d cdb4 0fbd 58ec a6bd
00000330: 74c3 d43c dcac 94bd a0f8 1ebd 403a 9d3c
00000340: a959 b5bd fc96 cbbd 381b 2c3c 8095 e43c
00000350: 1966 0abd 6da3 873d a6b4 a93c 16fc 4dbd
00000360: 37f8 89bd 5cd3 3fbd 094f 753d 9949 a5bd
00000370: 3cef 9cbd 717a 0cbe faeb 15bd 2803 9838
00000380: c81a acbb a3ae a53d 9741 b1bc 1671 be3d
00000390: 0441 073d fbcd cf3c 2901 543d 6f02 29bd
000003a0: ae95 753d 0903 1d3d a862 0eba 5e36 de3c
000003b0: 94f5 17bd ba2c 8d3c 06c9 ab3d 94c4 44bc
000003c0: 2295 b63d 4efa 963d a28c c73c 6419 55bc
000003d0: d8e6 a8bd 817b 83bc a0d0 883d 806b e3bc
000003e0: d693 babd 495b 02be 2fd9 59bd 3f6e 78bd
000003f0: ef0a 0fbd 2c86 933b 58e3 883d e388 ef3c
0.0029500797 -0.057857208 0.027266972 0.067061156 -0.05353795 -0.036260124 0.006860599 0.023896515
-0.03462837 -0.041123997 -0.053357065 0.03800779 0.040585972 0.042296212 0.044327103 0.024875894
0.03463281 -0.03505704 0.0030904412 0.012544595 0.061974466 0.06689799 0.039196454 0.04374093
-0.0455176 -0.04067869 -0.06889397 -0.0695201 0.07077819 0.0022998825 0.03219588 -0.00984554
0.017651986 0.061454345 0.059843484 0.0034996402 0.08920999 0.09313564 0.09768116 0.06320852
0.14935268 0.05438369 -0.025728341 0.05487197 -0.071377054 0.07497443 0.105334766 0.08603031
0.06381558 0.023608226 0.05711415 -0.04203458 0.029492691 0.031362407 0.03057719 -0.010717243
0.053782925 0.0210891 -0.032123215 -0.016732825 0.010202723 0.046477165 0.048208006 -0.022176309
0.06640166 0.010511662 0.09130588 0.0013689977 -0.04102198 -0.027001413 -0.022242578 0.0032809675
-0.0984582 -0.011544832 0.01253034 0.060148083 -0.04571224 0.09981293 0.060187593 0.07640717
-0.035055578 0.06721335 0.0748484 -0.031643428 -0.06320463 -0.078900695 0.039153337 -0.04888081
0.0137197925 0.07045888 0.07847965 0.014663991 0.059573215 -0.013405564 0.054803174 -0.03014855
0.04331476 -0.030077659 0.04676575 0.0964361 0.11138699 -0.026688982 0.047124274 0.052290745
0.035618745 0.016437752 0.04241618 -0.019005133 -0.047928516 -0.062684916 -0.059044294 -0.026264299
-0.08086293 0.041691866 -0.060811017 0.00989699 0.09967231 0.050379433 0.054523826 0.07141748
-0.005685324 0.053906407 0.08399824 -0.009448694 -0.034977052 0.020433865 0.06189682 0.05041823
0.0065393015 -0.03588762 0.08709257 0.038682703 0.06411593 0.019034198 0.020476159 0.019354915
0.00245353 -0.06250022 0.010231031 -0.061982594 -0.036509696 -0.066363566 -0.0693358 -0.05705253
0.04155841 0.12812181 0.06083568 -0.061896227 0.07669249 -0.019176532 -0.039919235 0.019256853
-0.021704903 -0.039878577 -0.10496572 0.026340406 0.025939267 -0.06757938 0.035205256 -0.074334554
-0.011864788 -0.10580498 -0.020283567 -0.03677157 0.0028146983 -0.13397826 -0.14486206 -0.009198817
-0.010702334 0.055113893 0.11434519 0.04791069 -0.030908396 -0.022782402 0.036260486 -0.043450575
-0.03424931 -0.08651001 -0.0060793962 0.019527422 -0.12340045 -0.018202938 0.039855547 -0.066513054
0.024579957 0.037953183 -0.075769216 0.05144676 -0.104279764 -0.049487 0.03622735 -0.033288874
-0.0033693074 -0.15076107 -0.10244258 -0.019214861 0.06534911 0.047244094 0.09989483 0.02709717
0.06903409 0.07332238 -0.035084534 -0.08150548 0.025972106 -0.07259533 -0.038811326 0.019192815
-0.08854992 -0.09940907 0.010504536 0.027903318 -0.033788774 0.06622968 0.020716023 -0.050289236
-0.06736796 -0.046832427 0.059889827 -0.08070678 -0.07662818 -0.13718583 -0.036601998 7.248513e-05
-0.005252216 0.0808995 -0.021637721 0.09298913 0.033020988 0.025366774 0.05175892 -0.041262086
0.0599572 0.038332973 -0.0005431571 0.027125534 -0.037099436 0.017233241 0.083879516 -0.0120097585
0.089151636 0.073719606 0.024359051 -0.013006542 -0.08247155 -0.016050102 0.06680417 -0.027761221
-0.09110229 -0.12730135 -0.053185638 -0.060652014 -0.034922536 0.0045020785 0.066839874 0.029240077

StatefulPartitionedCall/sequential/dense/MatMul_bias f4 [100]
00000000: 60f6 c33c a15c ca3d f8b7 51bd a28b dd3c
00000010: 7917 af3d 6225 483d ef95 883d 80e1 d03d
00000020: c2e5 f73c cedc 95bd 6a9b 983d ff0a 3bbd
00000030: f45b 373d d2e0 853d 2400 e73c d71b 0ebd
00000040: 2a56 303d e500 e43c 6ccc 9f3d 9646 20bc
00000050: 398e 713c c3d8 4d3d 7502 dd3b a132 813d
00000060: 0253 9d3d 499e 523d 6d80 b73d 3067 0c3d
00000070: 74f7 873c 1dbb 94bc 8799 7d3d ff95 063c
00000080: d951 a03c 8639 b13d c4c1 b63d 1d5f ac3c
00000090: 8a71 0abd f615 553d 4a37 823c fcdc c33c
000000a0: a045 30bd 834e 1ebc 1787 fabc e2ce f8bc
000000b0: 35ad 5b3d 9bc6 ae3d f136 a13c 9797 233d
000000c0: 97fc d13c b2d2 00bd 00ea b53d 1c58 4cbd
000000d0: 5d8b 063e b96c 0d3d 1b3c 773d 2f32 44bd
000000e0: 0360 b53d 1a26 273c d0b0 913d 05f3 a53d
000000f0: da42 8b3c 4798 703d 70d3 cb3c 36cf 303d
00000100: 0afe 263d 2bc7 f83b c2b8 0dbc 5a8a 2cbd
00000110: c19c 543d a6a1 5bba 08d2 7c3d c2b8 153d
00000120: caa9 7b3c b108 a4bc 9167 303d a0de 403c
00000130: 10f2 93bc a4bb babc ad60 0cbb 8c0f e33c
00000140: 3b08 3b3b 682d 73bd 3e5f 3c3d 64d4 85bd
00000150: c1d7 57bb 7390 1a3d 520d 2d3d 7698 90bd
00000160: 74cc 20bc 3619 46bd 2d54 edbc efd1 03bd
00000170: 0047 373d 3575 19bd ec65 c7bc 1028 e3bc
00000180: 5f1b 103d 7197 783d 6b35 cbbb 46af a93d
0.023921192 0.09880949 -0.051200837 0.027044121 0.08549399 0.048863776 0.066692226 0.10199261
0.030260924 -0.07317506 0.07451518 -0.045664784 0.044765428 0.06537022 0.02819831 -0.03469452
0.043050922 0.027832458 0.07802662 -0.009782454 0.014743381 0.05025555 0.0067446777 0.06308485
0.07681848 0.051420484 0.08960042 0.034278095 0.016597487 -0.018155629 0.061913993 0.008214473
0.019570278 0.0865355 0.089236766 0.021041447 -0.033799686 0.052022897 0.015895505 0.023909084
-0.04303515 -0.009662273 -0.030581994 -0.030372087 0.05363198 0.08533975 0.019679518 0.03993949
0.02563314 -0.031450935 0.088825226 -0.049888715 0.131391 0.034527514 0.060360055 -0.04789942
0.088562034 0.010201955 0.071138024 0.08102993 0.01699965 0.058738973 0.024881095 0.04316636
0.040769614 0.007592102 -0.008650007 -0.04212413 0.051907305 -0.00083782745 0.06172374 0.036553152
0.015360305 -0.020023676 0.04306752 0.011771828 -0.01805976 -0.022794552 -0.0021419928 0.027717374
0.0028538841 -0.059369475 0.045989268 -0.06534651 -0.0032934996 0.037735414 0.04224903 -0.070603296
-0.00981437 -0.048363887 -0.028970802 -0.03218263 0.044745445 -0.037465293 -0.024340592 -0.027729064
0.035182353 0.0606913 -0.0062014363 0.08285384

StatefulPartitionedCall/sequential/dense_1/MatMul/ReadVariableOp/transpose f4 [10, 100]
00000000: a2fa 023e 79ee 77be 17f6 a03c 04d2 463e
00000010: 1fb3 08be ae42 3bbe 48e4 673e 3ab0 8ebe
00000020: 0e92 4bbe 589a d53d 1ebf dfbb d2a5 0f3a
00000030: 25c9 3cbe efe6 8dbe b66c 9e3c 0403 5b3e
00000040: 4f9c 473e cf76 3fbe 24ff cbbd b65a cf3d
00000050: 7d85 353d 6a71 4ebe e344 8dba 6b3d a1be
00000060: 9f97 f1bd 0dde a3be 3455 183d c5da 62be
00000070: 6cc2 d6bd 0b70 babe 3502 e53d aa6b 2ebd
00000080: 69e6 2cbd dc1b 6d3e 69d0 5abe 7b46 a6bd
00000090: 6073 683d f658 a6be b432 b43d 2ad2 5cbe
000000a0: 4261 8dbe 2096 9bbe 8624 01be 52a0 3dbd
000000b0: e576 ee3d 7e19 92be 18b2 a3be ca7a 97bb
000000c0: ce58 6d3d 3585 4abe 6aa5 80bd 964e 9d3e
000000d0: 33a7 b63d b155 05be 20ff 15be d420 2a3e
000000e0: 6b9c 743e 3c9d b8bd 2732 a6be 445e 19bd
000000f0: 0193 c33c d0b5 743d b914 8cbe cf59 bcbd
00000100: a49d 963e c32b 19be 9153 863e ba35 52bd
00000110: 8168 df3c daf6 203e 6b54 77be 8b92 343e
00000120: db40 993e 076a 193e 87ae 5b3b 76e4 7a3e
00000130: 72f6 85be f614 8ebe b2cc 713e 1866 69be
00000140: 14cb 7ebd 8928 353e ef44 fabd 8137 873e
00000150: 5a05 4e3e 2bf6 6b3c c1ba a63d f823 483e
00000160: 93fb 86be b7c8 823e 66c9 34be f176 b93d
00000170: dbc8 acbb 4c6c 98be 0c90 50be a192 0e3e
00000180: 12f9 0c3c 8ace 073e 932b c43d 8085 b4bd
00000190: 3e04 0bbe fa89 bb3d 17ba 93be e473 a4be
000001a0: 0f33 8fbe 4ae6 523e 540b 7bbd 5c39 e63d
000001b0: 753a 593e 726e 47be ffa8 e93d 105f f1bc
000001c0: f3a4 aa3e c14c 983e 335e b43e 7b70 6fbe
000001d0: 51f3 67be 46bb 113e 72f1 24be 0fee e6bc
000001e0: 3d04 713d a621 36be 2c88 8b3e 7b78 b1be
000001f0: 2601 a73e 958e 5bbd 966b 3d3e 4b7e fe3d
00000200: 5717 d6bd 9f93 07be 49f5 d03d de6e 6e3e
00000210: a98e 053d 51ce d93c b872 2a3e a274 0fbd
00000220: a1e7 ecbd 3bb8 34bc 2d61 3f3e 3464 8abc
00000230: ab17 8abe 82c3 803d b6c8 7ebd 4407 5c3c
00000240: 5f5f 43be 29bf 4cbe 66a8 803e db48 9abd
00000250: daba 623e 171b a7be 58ed 77be cdd4 9a3d
00000260: 9fc4 a83e b72e 8e3e 6431 a23e f69f 9bbe
00000270: 2a7e aa3e 164a a5be e00b 963e 6f9c 813e
00000280: 4e38 d8bc 9e99 52be 5933 293e 0710 e63d
00000290: db2f 693d bad5 28be eb38 8b3d 8893 97be
000002a0: 1c51 0a3d 4c3f f9bd ba46 943d 8f91 d33d
000002b0: 8753 9cbd c3db 9ebe 6b62 4abe 57d1 153d
000002c0: 3b4b abbd b12d 3b3e 7029 7cbe 78ef fa3d
000002d0: 0f7b 90be 7b87 d43c 601f 633e 1616 5abe
000002e0: 2c17 333d 6a68 32be 5038 44be 1106 73be
000002f0: 251c 013e 4886 99be 28a6 60be 2cba 7a3e
00000300: 4698 01be 6fff 0bbe 3b31 4bbe ca8d 64be
00000310: cfa9 bc3c fc6a 61bd 36ec 40be aee8 b7be
00000320: 959b 5fbe 7ed0 75be ef16 133e eaad dfbd
00000330: 6a48 7cbe 5a36 f6be 5128 1cbe f413 f63c
00000340: 45bf 50be b109 4a3e aacd 043e e80b 13be
00000350: aff5 be3d fc1e 6d3e 2010 77bb 8d9a 65be
00000360: 55e3 9abd 11e0 863e 7655 efbd 3529 6dbe
00000370: 5865 5d3e e59d abbb 1cf3 95bb 2a32 ae3e
00000380: 6cb3 97bc 5056 123d 2dcc e23d b18c 8ebe
00000390: 1b4e 72be 2c95 35be 013c d83d ef34 9cbe
000003a0: 9444 c1bc 218b 63be e028 d7bd b9ac 83be
000003b0: 83b4 103c 68eb 173e e326 8d3e 7229 0ebe
000003c0: 80ab 9bbb d98f 813e 1e88 8c3b eeb7 5a3c
000003d0: 9bff 88be 281a 423d c04b 833d 964b 7dbe
000003e0: 0b94 7c3d 0112 f2bd a882 61be ba8d 873e
000003f0: f48d 873d a0a8 733e 4804 abbd bb9e a6bd
0.12790921 -0.24212064 0.019648595 0.19416052 -0.1334958 -0.18287155 0.22645676 -0.27868825
-0.19879934 0.10429829 -0.006828203 0.0005479726 -0.18436106 -0.2771525 0.019338947 0.21387869
0.19493221 -0.18697666 -0.099607736 0.101247236 0.044316757 -0.20160452 -0.0010777976 -0.3149217
-0.117964976 -0.3200535 0.03719063 -0.22153766 -0.10486302 -0.36413607 0.111820616 -0.042583145
-0.042211924 0.23155159 -0.21368565 -0.08118912 0.056750655 -0.32489747 0.08798733 -0.21564546
-0.27613264 -0.30387974 -0.12611589 -0.04629547 0.11643771 -0.28535074 -0.31971812 -0.004622792
0.05794602 -0.19777377 -0.0628155 0.3072402 0.089186095 -0.1302097 -0.14648104 0.16614085
0.23887794 -0.09014365 -0.32460138 -0.037443414 0.023873808 0.059743702 -0.2735956 -0.09196817
0.29417145 -0.149581 0.2623563 -0.05132077 0.027271511 0.15719166 -0.24153297 0.17634027
0.29932293 0.14981852 0.0033520774 0.24501213 -0.26164585 -0.27750367 0.23613241 -0.22792852
-0.06220539 0.17691244 -0.12220179 0.26409534 0.20119229 0.014401953 0.08141089 0.19544971
-0.2636381 0.25543758 -0.17654952 0.090558894 -0.0052729673 -0.29770124 -0.2036745 0.13923122
0.008604305 0.13262382 0.095786236 -0.088145256 -0.13575837 0.09157176 -0.28852913 -0.32119668
-0.27968642 0.20595661 -0.0612901 0.11241409 0.21213706 -0.19475725 0.114091866 -0.029464275
0.3332897 0.2974606 0.35228118 -0.23382752 -0.22651412 0.14231595 -0.16107729 -0.028189687
0.058841933 -0.17786273 0.27252328 -0.34662232 0.32618064 -0.053602774 0.18498072 0.12426432
-0.104536705 -0.13239907 0.102030344 0.2328448 0.032606754 0.026587637 0.16645324 -0.03502334
-0.11567617 -0.011030252 0.18689413 -0.016893484 -0.26971182 0.0628729 -0.06220313 0.013429467
-0.1907935 -0.19994797 0.25128478 -0.07533427 0.2214159 -0.32637855 -0.24211633 0.0756012
0.3296251 0.27770016 0.31678307 -0.30395478 0.3329938 -0.32283086 0.29305935 0.25314662
-0.026394036 -0.20566413 0.16523494 0.11233526 0.056930404 -0.1648778 0.067979656 -0.29604745
0.03376876 -0.12170276 0.072400525 0.103304975 -0.07633119 -0.3102704 -0.19764106 0.036576595
-0.083639584 0.18279149 -0.24625182 0.12252706 -0.28218886 0.025943508 0.22179937 -0.21297488
0.04372327 -0.17422643 -0.19162107 -0.23732783 0.12608393 -0.2998526 -0.21938384 0.24485081
-0.12655744 -0.13671659 -0.19842999 -0.22319713 0.02303019 -0.05503367 -0.18840107 -0.35919708
-0.21836694 -0.24005315 0.14364217 -0.10921843 -0.24636999 -0.48088342 -0.15249754 0.030038811
-0.20385464 0.1973026 0.1296908 -0.1436001 0.09324204 0.23156351 -0.003769882 -0.22422238
-0.075628914 0.26342824 -0.11686222 -0.2316025 0.21620691 -0.0052373284 -0.0045761 0.34022647
-0.018518172 0.035726845 0.110741 -0.27841714 -0.23662607 -0.17732686 0.1055832 -0.30509135
-0.02359227 -0.22221042 -0.10505843 -0.25717714 0.0088321 0.14835894 0.2756873 -0.13882998
-0.004750669 0.2530506 0.0042886874 0.013349516 -0.26757511 0.047388226 0.064109325 -0.24735865
0.061664622 -0.1181984 -0.22022498 0.26475316 0.06618872 0.23794794 -0.08350426 -0.08135744

StatefulPartitionedCall/sequential/dense_1/MatMul_bias f4 [10]
00000000: 6796 41bd ca13 ad3c 82d3 983c fc9c 90bc
00000010: 283b 31bd c787 983d 8436 0a3b 8c5e 133d
00000020: 32c4 a6bd a42f d43c
-0.047262575 0.0211276 0.018655542 -0.017652981 -0.043269306 0.074477725 0.0021089623 0.03597884
-0.0814289 0.025901623
